models/gnn_encoder.onnx (onnx, 131096 bytes, 9 tensors)

model.convs.0.lin_l.weight f4 [64, 74]
0.061843198 -0.0069534434 0.041161027 -0.041100014 -0.064713225 -0.08977467 0.03512565 0.026639415
-0.03709447 -0.115717575 -0.03962644 -0.11274904 -0.10423746 0.008384675 0.04809597 -0.0783369
0.027589103 0.104004964 0.013376517 0.06373383 -0.0843599 -0.03587468 0.064215496 -0.07988513
-0.04357647 0.005324319 0.08060743 -0.071819134 -0.020889066 0.094978355 -0.014474734 -0.044492602
-0.023369249 0.11399341 0.10619918 0.0720845 -0.023347024 -0.025620311 0.006141849 0.051110666
-0.1198492 -0.02186511 0.1132186 0.028540695 0.055575695 0.057405416 -0.049298935 -0.05235791
0.09036792 0.083504826 0.0011979097 0.062471423 0.03227909 -0.09066502 -0.06687639 0.042243004
-0.021029888 0.036439538 -0.08985788 0.023750618 0.047691535 -0.051731136 0.019359872 -0.055808943
0.08887056 -0.05169987 -0.03713717 -0.06954917 0.11610459 0.0410329 -0.081868656 0.008394611
-0.09708117 0.08811839 -0.058760285 0.08293823 -0.07834577 0.048158947 -0.04461509 0.026703978
0.11072806 0.073566936 0.11191601 -0.04061743 -0.07598186 -0.025034953 -0.12503865 0.08593635
0.06532866 0.092110194 -0.0658513 -0.08585826 0.10001572 0.030265765 -0.11032064 0.09654121
-0.054897487 -0.022766216 0.110952325 0.10845349 -0.07612633 0.0023052448 -0.043057192 0.020754326
-0.07463055 -0.112882145 0.0575892 -0.08068856 -0.067726925 0.05569021 0.05567138 -0.070658036
-0.015912158 -0.08985893 -0.05498273 0.09661847 -0.026896115 0.09474058 -0.008761426 0.014641314
0.102227755 -0.08342366 0.018277535 -0.08477135 0.03892876 -0.044388913 0.049214687 0.05759843
0.027923755 -0.0701743 0.049568612 0.005475895 -0.07129896 -0.016653582 -0.062006358 0.028757287
0.07223962 -0.039826024 -0.012061814 -0.058206495 -0.016227966 0.059443593 -0.050882276 0.01512005
0.097092465 -0.0891088 -0.029904325 -0.07247507 -0.039357904 -0.10241584 -0.041848578 -0.030046472
-0.09084737 0.096931 -0.11456586 0.05049625 0.043895725 0.030005015 -0.042162567 -0.06453055
0.03188506 0.03610939 0.10983097 -0.053849854 0.010000245 0.06890023 0.099681124 -0.07506427
-0.10413986 0.08458648 0.01341755 0.012216814 0.060979344 0.087252006 -0.10788935 -0.06773087
0.090342715 0.06791039 0.042156212 0.03367769 0.035466146 -0.052130766 0.05878003 0.11561673
-0.083649084 -0.030057732 0.07587048 -0.06306938 0.09331372 -0.026333384 -0.03817053 0.051639333
-0.054449853 0.025220556 0.072319135 0.033828285 0.0034553837 0.015429403 0.09980375 0.08819226
0.0659108 -0.098813474 0.087577365 -0.0031523444 0.0018796718 -0.01807025 -0.046806958 -0.07488995
0.009880195 0.033777 -0.070440836 0.08527073 0.00530525 0.028020814 0.017634312 0.06534383
0.06838072 0.017416786 0.09724725 0.08560399 0.072772786 -0.11416485 0.026960457 -0.050632253
-0.05503991 -0.042290818 0.081001356 -0.03627585 -0.04553326 -0.066146754 0.03834992 0.04434069
0.09157065 -0.03359294 0.05362669 0.036169797 -0.04680557 -0.033589542 0.051347025 -0.07759699
-0.003939467 0.0976109 -0.032712374 -0.107093774 0.027546545 -0.01338619 -0.11003883 0.116172485
0.058320615 -0.09117501 0.03621565 -0.07501703 0.011878711 0.09601177 0.0006001638 -0.0086746765
00000000: 4b4f 7d3d b6d9 e3bb 7798 283d 7d58 28bd
00000010: 5e88 84bd c8db b7bd eadf 0f3d e73a da3c
00000020: 5ff0 17bd 56fd ecbd 554f 22bd f8e8 e6bd
00000030: 737a d5bd e05f 093c 4800 453d 196f a0bd
00000040: 8b02 e23c 8e00 d53d 2e29 5b3c e286 823d
00000050: e2c4 acbd 54f1 12bd 6a83 833d d19a a3bd
00000060: 3e7d 32bd a077 ae3b 8215 a53d e915 93bd
00000070: 8c1f abbc 0384 c23d 6f27 6dbc e03d 36bd
00000080: de70 bfbc 6075 e93d f57e d93d 0aa1 933d
00000090: 4242 bfbc b0e1 d1bc 9041 c93b 6b59 513d
000000a0: 7f73 f5bd 761e b3bc 27df e73d 2dce e93c
000000b0: 57a3 633d f121 6b3d aeed 49bd 3f75 56bd
000000c0: d112 b93d 9404 ab3d 2e03 9d3a 09e2 7f3d
000000d0: 1437 043d 95ae b9bd 7df6 88bd 0007 2d3d
000000e0: df46 acbc a041 153d 6807 b8bd a890 c23c
000000f0: 3358 433d 07e4 53bd 9898 9e3c eb97 64bd
00000100: c501 b63d 3ec3 53bd 251d 18bd cc6f 8ebd
00000110: 3ec8 ed3d 1d12 283d c1aa a7bd 8d89 093c
00000120: 7ed2 c6bd 6a77 b43d a0ae 70bd 85db a93d
00000130: bf73 a0bd 5142 453d 50be 36bd 4dc2 da3c
00000140: 65c5 e23d 43aa 963d 3934 e53d 765e 26bd
00000150: 619c 9bbd 1a16 cdbc 220a 00be 66ff af3d
00000160: 08cb 853d 45a4 bc3d 0cdd 86bd 75d6 afbd
00000170: 0bd5 cc3d e9ef f73c caef e1bd 66b7 c53d
00000180: 30dc 60bd 3780 babc f93a e33d dd1c de3d
00000190: 1fe8 9bbd 9713 173b bd5c 30bd fa04 aa3c
000001a0: e7d7 98bd c12e e7bd a7e2 6b3d 0b40 a5bd
000001b0: 6ab4 8abd 6b1b 643d ac07 643d 29b5 90bd
000001c0: 375a 82bc f507 b8bd 9235 61bd e8df c53d
000001d0: 3e55 dcbc 5907 c23d 168c 0fbc 1fe2 6f3c
000001e0: c95c d13d 06da aabd c5ba 953c 9a9c adbd
000001f0: c373 1f3d 26d1 35bd 5795 493d 55ec 6b3d
00000200: 5cc0 e43c 8bb7 8fbd 7508 4b3d 236f b33b
00000210: 3005 92bd 186d 88bc 61fa 7dbd 6794 eb3c
00000220: 5ef2 933d 9d20 23bd ea9e 45bc ef69 6ebd
00000230: 83f0 84bc 207b 733d ef69 50bd 16ba 773c
00000240: 6ad8 c63d ad7e b6bd eaf9 f4bc cf6d 94bd
00000250: c135 21bd 65bf d1bd 6a69 2bbd 0524 f6bc
00000260: 300e babd c383 c63d 81a1 eabd 28d5 4e3d
00000270: 01cc 333d 14cd f53c a8b2 2cbd 9828 84bd
00000280: e999 023d 71e7 133d 0fef e03d aa91 5cbd
00000290: 11d8 233c 901b 8d3d 9e25 cc3d 4cbb 99bd
000002a0: 4747 d5bd ad3b ad3d 49d5 5b3c 0829 483c
000002b0: 7ac5 793d 2eb1 b23d 17f5 dcbd 7bb6 8abd
000002c0: 9a05 b93d 9a14 8b3d feab 2c3d 9ef1 093d
000002d0: f344 113d 1287 55bd 54c3 703d 77c8 ec3d
000002e0: 3650 abbd a23b f6bc fb61 9b3d 852a 81bd
000002f0: 431b bf3d 1cb9 d7bc b458 1cbd c483 533d
00000300: cf06 5fbd 579b ce3c 0e1c 943d 878f 0a3d
00000310: b873 623b 9bcb 7c3c e965 cc3d 259e b43d
00000320: 3efc 863d b85e cabd c35b b33d 9097 4ebb
00000330: 525f f63a 1008 94bc a7b8 3fbd e75f 99bd
00000340: 8be0 213c c059 0a3d 4943 90bd 6ca2 ae3d
00000350: aad7 ad3b e88b e53c d575 903c fcd2 853d
00000360: 310b 8c3d a6ad 8e3c 9129 c73d 2551 af3d
00000370: e609 953d 43cf e9bd 2ddc dc3c c463 4fbd
00000380: 8771 61bd 2339 2dbd 0ae4 a53d fc95 14bd
00000390: 1581 3abd f377 87bd ce14 1d3d 959e 353d
000003a0: 6589 bb3d c098 09bd a9a7 5b3d c826 143d
000003b0: 33b7 3fbd 3095 09bd 4251 523d 2ceb 9ebd
000003c0: a516 81bb 39e8 c73d 69fd 05bd fb53 dbbd
000003d0: 4ba9 e13c c051 5bbc 0a5c e1bd d7eb ed3d
000003e0: 99e1 6e3d f7b9 babd dd56 143d 87a2 99bd
000003f0: ed9e 423c d2a1 c43d 5054 1d3a 3b20 0ebc

model.convs.0.lin_l.bias f4 [64]
0.08769 0.052532017 0.01677043 0.12648496 -0.10770413 0.04223546 -0.096484944 -0.06732176
0.020054197 0.075514086 0.06431714 -0.085032225 0.076331005 -0.12952657 -0.021027789 0.1254623
-0.040827643 0.05918072 -0.11842388 0.056842245 -0.0051601357 0.090446696 0.040992986 0.019850751
0.04323285 0.11656012 -0.0781675 -0.047600657 0.016810138 -0.029817939 0.041199617 -0.030287657
0.030898605 -0.0044720494 -0.066254035 0.06717572 0.0926085 0.093320236 -0.08604774 -0.09480562
-0.026043545 0.058703937 -0.0458664 0.055858508 -0.013700727 -0.054747347 -0.08674826 -0.02943491
-0.034510113 0.10196218 0.13049316 -0.030489974 0.06233503 -0.06738835 -0.09225153 0.09730105
0.043414902 -0.07757085 -0.061441988 -0.06057651 0.03505839 -0.002380895 -0.07335609 -0.05889794
00000000: d196 b33d d02b 573d 2462 893c 4685 013e
00000010: fc93 dcbd 17ff 2c3d e699 c5bd fedf 89bd
00000020: b348 a43c 21a7 9a3d b4b8 833d 6025 aebd
00000030: 6e53 9c3d 9da2 04be 7842 acbc 3079 003e
00000040: e33a 27bd 7c67 723d 3888 f2bd 6ad3 683d
00000050: 5b16 a9bb 1e3c b93d 43e8 273d 0b9e a23c
00000060: ee14 313d 12b7 ee3d 4816 a0bd e8f8 42bd
00000070: 6ab5 893c c044 f4bc eec0 283d d21d f8bc
00000080: 121f fd3c 458a 92bb 32b0 87bd 6d93 893d
00000090: 86a9 bd3d ae1e bf3d cc39 b0bd 7329 c2bd
000000a0: 4659 d5bc 8a73 703d 68de 3bbd e4cb 643d
000000b0: 0479 60bc c13e 60bd 12a9 b1bd 7b21 f1bc
000000c0: 7a5a 0dbd 8cd1 d03d 00a0 053e 1cc6 f9bc
000000d0: 0453 7f3d e702 8abd 5fee bcbd c645 c73d
000000e0: d3d3 313d 77dd 9ebd 98aa 7bbd 131f 78bd
000000f0: 6399 0f3d ca08 1cbb b83b 96bd f73e 71bd

model.convs.1.lin_l.weight f4 [64, 64]
0.1105996 0.11997521 0.026999671 0.048684664 0.0888678 -0.00013721688 0.0005459704 0.049216777
-0.06428477 -0.021946363 -0.096189335 0.09100834 -0.0026241266 -0.04213269 0.085712135 0.015795004
0.057007615 -0.09417306 0.10516964 -0.07588713 -0.01943202 0.09415411 0.09665111 0.0015277136
-0.01626282 0.08822305 -0.0059595197 0.10849289 0.026989322 0.09634391 0.025508393 -0.07351376
-0.0131061375 -0.047817096 -0.13125563 -0.020446472 0.027599964 0.09185662 -0.058897905 0.09247904
0.0066168783 0.053619165 0.061441563 0.052978512 -0.07263706 -0.052573856 0.10629437 -0.10526996
-0.12064182 -0.07181325 0.03208775 -0.12166231 -0.12224332 0.065510124 0.107455686 0.08195941
-0.021542253 -0.040925182 -0.029076008 -0.12881115 -0.12418891 -0.000111245085 0.109957434 0.057700276
-0.014145151 0.105505235 -0.03924781 -0.03369429 0.08357834 -0.08924191 0.10133155 0.065387204
-0.047529444 -0.06959244 0.11413883 0.09131187 -0.0084658535 0.09870675 0.0554753 -0.02612397
0.05371944 0.09513984 0.15049441 0.04564531 0.11611327 -0.010468956 -0.027202103 0.07040973
0.08855595 0.03853576 -0.100711375 -0.06958299 0.11690822 0.08431157 -0.064943574 -0.03334496
-0.04790877 -0.05427651 0.089758635 -0.026908992 -0.0454472 0.11771625 0.1132296 -0.043459676
-0.079406455 0.0019094832 0.12023383 0.023550753 -0.00584074 0.118736595 -0.05409707 0.072031885
0.11816939 -0.034552444 -0.0022550826 0.12739775 0.05484012 0.024710609 0.018729974 0.13178231
0.10017185 -0.017356966 -0.0035454882 0.14287516 -0.017635597 0.023471337 -0.04786927 0.057743207
-0.022856977 0.06829866 0.045048267 -0.016251763 0.06667359 0.13150132 0.10834283 -0.031680427
-0.068128645 -0.037946902 0.00022332696 -0.089516066 -0.0922058 0.04599608 0.11686873 0.0727188
-0.008350437 0.10548359 0.11285354 0.14447401 0.14075695 0.00020522345 0.098895185 -0.018896744
-0.058392856 -0.04667657 0.090360284 0.11054122 0.07315493 -0.08244147 0.08494615 0.124631345
-0.039890446 -0.057609767 0.09972091 -0.053597353 -0.0053632725 -0.07514555 -0.045669764 0.0935167
0.049317863 -0.06422855 -0.028907618 0.13223407 0.12130279 0.08029007 0.11907692 -0.06199055
0.07485466 0.12732464 -0.09457399 0.12113805 -0.07055984 0.01079565 0.14935274 0.029743839
0.0011297502 -0.0029578311 0.15078586 0.073987015 0.055401362 0.11830646 -0.0077401283 0.049754333
-0.042768918 -0.10651671 -0.10649173 0.056806035 -0.065425314 0.029518161 0.04961945 -0.05034719
0.10810699 -0.05342091 0.119317435 -0.11137739 0.1041386 -0.08109674 -0.0044001536 -0.10865583
-0.0047281627 -0.013365148 -0.02557202 0.116036266 -0.03130401 0.10506486 0.10890452 -0.035402928
0.06072259 -0.07924441 0.11878637 0.11408155 -0.036376953 0.11348367 -0.11097473 -0.08913858
0.03679883 -0.0948839 0.0005570273 -0.07961016 -0.043338202 0.03056071 0.11414771 -0.095614016
0.11635183 0.07286212 -0.07106386 -0.090951264 -0.08679569 -0.115744114 0.1128601 -0.1049911
0.06880588 -0.03561768 0.12882943 -0.024683055 0.033228364 -0.06115191 -0.10035137 -0.10880091
0.07379692 -0.009483987 -0.0036877766 -0.11917489 0.0227325 -0.109817915 0.017843425 0.10437391
00000000: 0b82 e23d 90b5 f53d 6a2e dd3c 9269 473d
00000010: 5200 b63d e0e1 0fb9 741f 0f3a 8897 493d
00000020: bca7 83bd dcc8 b3bc eafe c4bd 9562 ba3d
00000030: 8af9 2bbb 5493 2cbd d889 af3d 8664 813c
00000040: d180 693d cedd c0bd 2e63 d73d b66a 9bbd
00000050: e62f 9fbc dfd3 c03d 04f1 c53d 903d c83a
00000060: 9b39 85bc 49ae b43d 1348 c3bb 8531 de3d
00000070: b618 dd3c f54f c53d faf6 d03c 628e 96bd
00000080: 20bb 56bc dcdb 43bd e067 06be 5c7f a7bc
00000090: 5219 e23c 531f bc3d ee3e 71bd a765 bd3d
000000a0: 66d2 d83b c59f 5b3d 26aa 7b3d ffff 583d
000000b0: bdc2 94bd af57 57bd ddb0 d93d c797 d7bd
000000c0: 0f13 f7bd d312 93bd 726e 033d 172a f9bd
000000d0: b55a fabd 2c2a 863d ba11 dc3d 56da a73d
000000e0: 6179 b0bc 2aa1 27bd cf30 eebc 12e7 03be
000000f0: c156 febd 404c e9b8 5d31 e13d 2057 6c3d
00000100: 10c1 67bc 2113 d83d 50c2 20bd 0603 0abd
00000110: 1f2b ab3d 76c4 b6bd ea86 cf3d bae9 853d
00000120: 3cae 42bd 7b86 8ebd 9ec1 e93d b801 bb3d
00000130: 5db4 0abc c426 ca3d 113a 633d f001 d6bc
00000140: ea08 5c3d add8 c23d 351b 1a3e 94f6 3a3d
00000150: cbcc ed3d fc85 2bbc f2d6 debc fa32 903d
00000160: d25c b53d acd7 1d3d c441 cebd 8781 8ebd
00000170: 946d ef3d 8bab ac3d 2301 85bd ba94 08bd
00000180: fd3b 44bd 0c51 5ebd 60d3 b73d 3f70 dcbc
00000190: d826 3abd 3815 f13d ece4 e73d c602 32bd
000001a0: da9f a2bd a047 fa3a 273d f63d 82ed c03c
000001b0: ae63 bfbb 2c2c f33d e494 5dbd 7485 933d
000001c0: cb02 f23d dd86 0dbd 02ca 13bb 8e74 023e
000001d0: 09a0 603d e76d ca3c 9a6f 993c f1f1 063e
000001e0: e626 cd3d 3230 8ebc 6c5b 68bb de4d 123e
000001f0: 8778 90bc f646 c03c 9112 44bd 2484 6c3d
00000200: 8e3e bbbc 2be0 8b3d 8884 383d 6b22 85bc
00000210: 2a8c 883d 48a8 063e d8e2 dd3d 56c3 01bd
00000220: 0887 8bbd 366e 1bbd e02c 6a39 3354 b7bd
00000230: 65d6 bcbd 6366 3c3d df58 ef3d 98ed 943d
00000240: 45d0 08bc c807 d83d c21f e73d fff0 133e
00000250: 9722 103e 4031 5739 8f89 ca3d 58cd 9abc
00000260: 592d 6fbd ee2f 3fbd d00e b93d 6f63 e23d
00000270: 40d2 953d 13d7 a8bd 3ff8 ad3d b83e ff3d
00000280: 2a64 23bd 38f8 6bbd 7a3a cc3d e688 5bbd
00000290: 64be afbb e9e5 99bd 3810 3bbd af85 bf3d
000002a0: 8701 4a3d 428a 83bd abcf ecbc 5e68 073e
000002b0: 996d f83d 1f6f a43d 9ade f33d cee9 7dbd
000002c0: 664d 993d 6461 023e 02b0 c1bd 3a17 f83d
000002d0: ad81 90bd 3de0 303c edef 183e 5aa9 f33c
000002e0: 2014 943a 2cd8 41bb 9c67 1a3e 8186 973d
000002f0: 8aec 623d a84a f23d e7a0 fdbb 33cb 4b3d
00000300: 762e 2fbd 6f25 dabd 5618 dabd 72ad 683d
00000310: b5fd 85bd 12d0 f13c c43d 4b3d db38 4ebd
00000320: 3367 dd3d e2cf 5abd b35c f43d d419 e4bd
00000330: 9e46 d53d 0c16 a6bd 2a2f 90bb f386 debd
00000340: b4ee 9abb 7ef9 5abc 6a7c d1bc 6ca4 ed3d
00000350: a238 00bd 3f2c d73d 5509 df3d a902 11bd
00000360: 40b8 783d e54a a2bd 4546 f33d 96a3 e93d
00000370: 0000 15bd 206a e83d b846 e3bd 4a8e b6bd
00000380: 5fba 163d 7d52 c2bd 7805 123a a70a a3bd
00000390: 6683 31bd 745a fa3c 46c6 e93d 48d1 c3bd
000003a0: de49 ee3d bc38 953d ee89 91bd a844 babd
000003b0: f0c1 b1bd 400b edbd 3223 e73d 9305 d7bd
000003c0: 19ea 8c3d d8e3 11bd ddeb 033e 1e34 cabc
000003d0: 771a 083d 6d7a 7abd 0585 cdbd 03d3 debd
000003e0: d722 973d ba62 1bbc a0ae 71bb f711 f4bd
000003f0: 8239 ba3c 37e8 e0bd 602c 923c fdc1 d53d

model.convs.1.lin_l.bias f4 [64]
0.09775742 -0.0072754845 -0.062286425 0.11923376 -0.10203134 -0.04105761 0.0077649746 0.07226833
-0.00012232317 0.03220429 -0.0015469324 -0.12220539 0.051023744 -0.0473396 -0.02744847 -0.044026293
-0.024462907 -0.06679378 0.08360635 0.044260353 0.03983844 -0.09571025 0.075890325 0.10491674
-0.0849867 0.13440597 0.12444393 -0.10349273 -0.05773754 0.050056145 -0.1109645 -0.056308415
-0.055948436 0.027224153 0.042953804 -0.066712976 0.07952198 0.13912894 -0.08324398 -0.026712917
0.0022045653 -0.031860586 0.083517045 -0.002496177 0.099454015 0.12489116 -0.08291566 -0.00018109381
0.08060995 -0.102463305 -0.04726075 0.027714828 -0.0943489 -0.0061014965 -0.10612123 0.04199417
-0.05684128 0.021467788 -0.062180635 0.037507385 -0.1210769 -0.0014900486 0.082698494 -0.12712519
00000000: 0b35 c83d 3067 eebb 0d20 7fbd d430 f43d
00000010: cff5 d0bd 062c 28bd 5471 fe3b 6b01 943d
00000020: e043 00b9 a5e8 033d 70c2 caba d246 fabd
00000030: 46fe 503d 2be7 41bd 9ddb e0bc ea54 34bd
00000040: 6f66 c8bc 2dcb 88bd ce39 ab3d 584a 353d
00000050: a22d 233d bc03 c4bd 636c 9b3d 96de d63d
00000060: 820d aebd b8a1 093e 76dc fe3d fff3 d3bd
00000070: 337e 6cbd ac07 4d3d 5b41 e3bd a7a3 66bd
00000080: 302a 65bd 3005 df3c 54f0 2f3d d0a0 88bd
00000090: 6bdc a23d d177 0e3e d27b aabd 0cd5 dabc
000000a0: 787a 103b 3f80 02bd fc0a ab3d e796 23bb
000000b0: 8cae cb3d f0c6 ff3d b0cf a9bd 00e4 3db9
000000c0: d416 a53d 48d8 d1bd 7d94 41bd 350a e33c
000000d0: ff39 c1bd 10ef c7bb 1656 d9bd 1402 2c3d
000000e0: 67d2 68bd 37dd af3c 1fb1 7ebd 58a1 193d
000000f0: 2af7 f7bd bc4d c3ba d45d a93d 1b2d 02be

model.convs.2.lin_l.weight f4 [64, 64]
-0.012234967 -0.09223051 -0.12073327 -0.11848066 -0.12186071 -0.09148004 -0.079968266 -0.027182547
0.030023461 -0.03211201 0.01406532 -0.10616651 -0.10382768 -0.005581134 -0.006619377 -0.11144865
-0.011915131 -0.11799378 0.083441004 -0.0677075 -0.10222243 -0.025104001 0.0001818859 -0.004758925
-0.12310579 -0.13391493 0.02908375 0.07307602 0.013281564 0.049277946 0.050438683 -0.10050916
0.005544527 -0.13305841 -0.05385703 0.079869285 -0.0630077 -0.14755435 -0.12952322 -0.062169276
-0.08309689 -0.12772597 -0.15039492 0.002704848 0.05834899 0.0884633 -0.1380899 -0.060634963
-0.036337458 -0.037509337 -0.10378868 -0.11622731 -0.055936046 -0.010261128 -0.14286554 -0.086807996
-0.13106059 -0.016732506 -0.0244431 0.021892153 0.10080376 -0.13966386 -0.15469664 -0.02678132
0.017061323 -0.065473065 -0.0027936613 0.090316914 -0.014292594 0.031533398 -0.040083263 -0.07137375
-0.09546692 0.10448653 -0.09085438 -0.04308833 0.075311325 0.13176775 -0.060190573 0.032485694
0.099233985 -0.026687123 0.08837098 -0.086110264 0.031230109 -0.12396331 -0.09605757 -0.0832624
-0.0942933 0.101546064 -0.027390702 -0.028622964 0.08925333 0.060942236 -0.025871744 -0.0736369
0.025769155 0.060011543 0.1239491 -0.004080982 -0.015250597 0.07475362 0.01579845 0.08072879
0.12841819 0.06215339 0.061964083 -0.023436986 0.08620112 0.10948185 0.023902392 -0.030909874
0.0054767625 0.09712553 -0.049892273 0.018984737 -0.08606318 -0.025043791 -0.04006776 -0.098110296
-0.024894146 0.13015057 0.052186042 0.029374557 -0.04755746 -0.08835133 -0.03385126 -0.01685737
0.035968866 0.05604919 -0.022585658 0.023951713 -0.008287732 0.07502824 -0.04565308 0.015434616
-0.079109274 0.15072507 -0.06841425 -0.09644149 0.122933805 0.018148007 0.0097884 -0.019372169
-0.06312998 0.058390494 -0.045268446 0.14026073 -0.051774353 -0.10816416 -0.020506829 -0.043883894
-0.043643035 0.13452998 0.11046906 0.0054737907 -0.07888631 0.0016025528 -0.049887393 -0.023650397
0.055702336 -0.06806672 0.08290265 -0.05017488 0.06503447 0.11931676 0.11262472 0.06175702
0.04925152 0.034075294 0.013493414 -0.07352909 0.04669907 -0.067051426 0.03659386 0.15039545
0.08126723 0.11064799 0.019316401 -0.096857086 0.11269898 0.042515088 0.07657833 -0.08338816
0.14027229 -0.00527694 0.005727042 -0.036035024 -0.030923024 -0.08056135 -0.009659629 0.014178604
-0.01233165 -0.016651593 0.1513487 -0.034035858 0.09461638 -0.014997184 0.029321963 0.14192061
-0.07097406 0.08831686 0.03908851 0.039299443 -0.0022312542 0.030496586 0.14087239 0.063137144
-0.00013321219 0.012431169 0.124159925 0.02922668 0.086854525 -0.025296226 -0.09546186 -0.0824183
-0.09847995 0.08076249 0.03075564 -0.08079006 0.030834708 0.10321992 -0.10242617 -0.039471917
-0.0863536 -0.007095105 -0.027187709 -0.057709735 -0.060696933 0.010030908 0.080878556 -0.023126516
0.11992353 0.09887204 -0.083552755 0.041631322 0.09038297 -0.057718854 0.043853715 0.03422651
-0.052966706 -0.12074004 -0.09447189 0.14452858 -0.051075984 -0.06510766 -0.074679874 0.06590643
-0.035820838 0.028608916 -0.04095176 -0.03160474 -0.11380218 0.08122911 0.022571418 0.11163509
00000000: 2c75 48bc 5ae3 bcbd 0143 f7bd fda5 f2bd
00000010: 1c92 f9bd e359 bbbd 67c6 a3bd efad debc
00000020: c3f3 f53c e287 03bd 3a72 663c d46d d9bd
00000030: 9ba3 d4bd f2e1 b6bb 5ce7 d8bb 313f e4bd
00000040: ae37 43bc b9a6 f1bd 1ee3 aa3d 3baa 8abd
00000050: fe59 d1bd e8a6 cdbc a0b8 3e39 c2f0 9bbb
00000060: e31e fcbd ff20 09be 0b41 ee3c e1a8 953d
00000070: eb9a 593c acd7 493d cb98 4e3d bfd7 cdbd
00000080: ddae b53b 7740 08be 3099 5cbd 8292 a33d
00000090: 2e0a 81bd 7d18 17be bca1 04be 36a5 7ebd
000000a0: b42e aabd 99ca 02be 2001 1abe d243 313b
000000b0: 5aff 6e3d 3f2c b53d 7067 0dbe 5e5c 78bd
000000c0: 96d6 14bd 64a3 19bd 298f d4bd 9508 eebd
000000d0: 321d 65bd 4a1e 28bc 584b 12be 64c8 b1bd
000000e0: bf34 06be 9c12 89bc e53c c8bc 2c57 b33c
000000f0: 3472 ce3d 0b04 0fbe cc68 1ebe 8064 dbbc
00000100: 30c4 8b3c be16 86bd dc15 37bb 13f8 b83d
00000110: 7c2b 6abc 2a29 013d 592e 24bd 672c 92bd
00000120: 2984 c3bd 09fd d53d dc11 babd 647d 30bd
00000130: d33c 9a3d 20ee 063e 648a 76bd b80f 053d
00000140: 303b cb3d f49e dabc d8fb b43d 945a b0bd
00000150: 49d6 ff3c 7ae0 fdbd d5b9 c4bd 7a85 aabd
00000160: d81c c1bd 62f7 cf3d 7762 e0bc b57a eabc
00000170: 73ca b63d 919e 793d fbf0 d3bc f1ce 96bd
00000180: d619 d33c aace 753d 07d9 fd3d c2b9 85bb
00000190: a4dd 79bc 6d18 993d c06b 813c 2355 a53d
000001a0: 0f80 033e 8e94 7e3d 0dce 7d3d ecfe bfbc
000001b0: 368a b03d 0538 e03d f3ce c33c b436 fdbc
000001c0: 6a76 b33b c0e9 c63d d75b 4cbd e185 9b3c
000001d0: e441 b0bd a328 cdbc 171e 24bd 0dee c8bd
000001e0: cfee cbbc 3146 053e 08c1 553d e9a2 f03c
000001f0: 9ccb 42bd 8bf1 b4bd 9ea7 0abd 7818 8abc
00000200: 1754 133d d693 653d 8f05 b9bc 6236 c43c
00000210: 44c9 07bc 68a8 993d b9fe 3abd 79e1 7c3c
00000220: 0b04 a2bd ac57 1a3e c51c 8cbd 1e83 c5bd
00000230: b8c4 fb3d 21ab 943c 865f 203c 62b2 9ebc
00000240: 4a4a 81bd df2a 6f3d 686b 39bd 82a0 0f3e
00000250: 5811 54bd 2c85 ddbd f0fd a7bc 99bf 33bd
00000260: 0ac3 32bd 3ac2 093e 9a3d e23d 7c5d b33b
00000270: 258f a1bd c00c d23a b956 4cbd 7abe c1bc
00000280: 2228 643d 9166 8bbd ddc8 a93d 2d84 4dbd
00000290: cb30 853d 585c f43d caa7 e63d eef4 7c3d
000002a0: f6bb 493d 8992 0b3d 7b13 5d3c 6b96 96bd
000002b0: 8647 3f3d 4252 89bd 71e3 153d 4401 1a3e
000002c0: 6f6f a63d 6a9b e23d 6e3d 9e3c 025d c6bd
000002d0: b9ce e63d 4d24 2e3d 19d5 9c3d 69c7 aabd
000002e0: 8aa3 0f3e 2eea acbb e9a9 bb3b 7699 13bd
000002f0: 4852 fdbc 59fd a4bd 6c43 1ebc 604d 683c
00000300: b00a 4abc ec68 88bc 27fb 1a3e 2f69 0bbd
00000310: 3cc6 c13d c0b6 75bc 9d34 f03c a353 113e
00000320: d95a 91bd 78df b43d 461b 203d 74f8 203d
00000330: 3c3a 12bb fad3 f93c da40 103e 0c4e 813d
00000340: e0ae 0bb9 1aac 4b3c 8f47 fe3d ca6c ef3c
00000350: c9e0 b13d 083a cfbc 8281 c3bd edca a8bd
00000360: dbaf c9bd ce66 a53d 40f3 fb3c 4275 a5bd
00000370: 1299 fc3c f764 d33d d0c4 d1bd 4ead 21bd
00000380: 28da b0bd 0e7e e8bb c2b8 debc 0b61 6cbd
00000390: 599d 78bd ad58 243c a8a3 a53d d273 bdbc
000003a0: 789a f53d 6d7d ca3d b51d abbd 9b85 2a3d
000003b0: b51a b93d 9b6a 6cbd f49f 333d 1931 0c3d
000003c0: 9ef3 58bd 8e46 f7bd 7a7a c1bd 4dff 133e
000003d0: 0d35 51bd 2a57 85bd c3f1 98bd f3f9 863d
000003e0: dfb8 12bd 3f5d ea3c 08bd 27bd f973 01bd
000003f0: 1e11 e9bd 735b a63d b2e7 b83c f0a0 e43d

model.convs.2.lin_l.bias f4 [64]
0.004176189 0.15398702 -0.0076989904 0.081197254 -0.124523155 -0.05296705 -0.06823625 0.12567481
0.00023765303 0.13319391 -0.0755843 -0.06453258 -0.11168512 0.004348792 0.055449568 -0.08726537
0.05265245 0.15202308 0.07493185 -0.012960674 -0.08744629 -0.14643474 -0.07292391 -0.022021871
-0.13624418 0.13882694 0.066719115 0.043288242 -0.11360603 -0.0842051 0.031282816 -0.04435674
-0.09304609 0.12170209 -0.11567238 -0.07040925 -0.039693084 0.012841044 -0.10964041 -0.022568628
0.050004892 -0.096379906 -0.043920718 0.08708648 0.008861678 -0.0924706 0.14670534 -0.0486091
0.0067197923 -0.013022473 -0.064560175 0.033148676 -0.106521934 0.016599173 0.04357341 0.13451076
-0.123640314 0.15036602 -0.015735127 -0.019483536 0.15373877 -0.037829906 -0.10028104 -0.14116172
00000000: 6ad8 883b c6ae 1d3e d047 fcbb bf4a a63d
00000010: ff05 ffbd faf3 58bd 72bf 8bbd e6b0 003e
00000020: 8032 7939 fc63 083e f1cb 9abd a829 84bd
00000030: 2bbb e4bd 5080 8e3b 161f 633d 30b8 b2bd
00000040: 18aa 573d f0ab 1b3e df75 993d 0259 54bc
00000050: 0a17 b3bd fdf2 15be 2259 95bd 3667 b4bc
00000060: 9883 0bbe a628 0e3e 08a4 883d 034f 313d
00000070: 47aa e8bd b973 acbd 6922 003d 6aaf 35bd
00000080: f38e bebd f23e f93d a4e5 ecbd ba32 90bd
00000090: 3795 22bd 3e63 523c 278b e0bd d8e1 b8bc
000000a0: eed1 4c3d d462 c5bd 36e6 33bd 655a b23d
000000b0: 9230 113c 3a61 bdbd ed39 163e 561a 47bd
000000c0: b431 dc3b 365c 55bc 2038 84bd e8c6 073d
000000d0: 2c28 dabd fdfa 873c 087a 323d 30bd 093e
000000e0: 2237 fdbd 8df9 193e f4e6 80bc f09b 9fbc
000000f0: b26d 1d3e 88f3 1abd 2560 cdbd b38c 10be

onnx::MatMul_214 f4 [74, 64]
-0.012338487 0.04537828 0.0416161 -0.01864126 0.0461121 0.10834583 0.075611174 -0.05345112
-0.08203466 0.025540475 -0.06490703 0.040923215 0.08715361 0.0022734134 -0.09877138 -0.03637081
-0.037430413 -0.005667515 0.06549617 -0.07726982 0.07562065 -0.10351091 0.05493971 0.038069315
-0.02750629 0.0702816 -0.023524722 0.008356322 0.08850979 -0.046434946 -0.056893885 -0.07674167
0.071442194 0.014827017 -0.11255107 0.10332707 -0.11249063 0.0028575351 0.036674343 0.05523074
0.04326983 -0.053776134 0.06011532 0.036110125 -0.08019074 0.13046226 -0.049235955 0.0075022634
0.024726916 -0.07958233 0.03423102 -0.10708143 0.053109955 0.035991363 -0.07048412 0.029419644
-0.023895185 -0.09184545 0.12026004 -0.042800948 0.12630491 0.04550861 -0.08241679 -0.07314922
-0.11543784 0.09544647 -0.01694709 -0.034953404 -0.06364424 0.020375114 -0.08403915 0.12894616
0.074196704 -0.029112127 0.07190611 -0.0028974577 0.012462152 -0.108491085 -0.10884425 -0.104042366
0.10711056 0.038854547 0.010176738 -0.08774519 0.078911565 -0.0645621 0.06491389 -0.021944292
-0.073737636 -0.057324834 0.011725443 -0.036130816 -0.09231051 0.023938987 -0.045259543 0.03542727
-0.05854783 0.028757172 0.018675448 0.064091325 0.07024172 -0.083310604 -0.023194088 0.07572896
-0.0013663513 0.09531382 0.001251179 0.10675233 0.041082337 0.0042790524 0.06400823 0.078846455
-0.10595666 -0.004048726 0.11443337 0.021065433 0.027476594 0.030671895 -0.044395633 0.11511049
0.018419819 -0.025136093 0.020964757 -0.03410421 -0.08136569 0.022590915 -0.10538658 -0.017159335
-0.056582775 0.038258854 -0.09488196 0.037459157 -0.09704993 -0.020785691 0.03532354 0.06854407
0.031048305 -0.087319285 -0.064384535 -0.09671675 0.06211055 -0.025362058 0.09767583 -0.03093704
-0.08332351 -0.01189848 0.12517081 -0.07832177 0.012887492 0.10832455 -0.093526214 -0.07483187
-0.09342874 -0.026436325 -0.111962266 0.10267204 -0.014937336 -0.01404784 0.07348037 0.033866845
-0.077029414 -0.09868615 -0.038687278 0.06232887 0.008120791 0.1277029 0.11171697 -0.03267044
-0.02189971 -0.12188348 -0.0664737 0.12338114 0.01390056 0.0954926 -0.089486584 0.07907157
0.09783099 -0.0033439528 -0.014743032 0.0015102645 -0.017003218 -0.08425765 -0.07269927 -0.07882906
0.028675005 -0.05326706 -0.04996475 -0.0977544 0.14006837 0.09870525 0.115692906 -0.06865178
0.0023882084 -0.01769936 -0.006961166 -0.115914874 -0.052016646 -0.044467542 -0.093617536 -0.03952686
-0.114254996 0.121502265 0.046881784 -0.11563303 -0.07611411 -0.11612382 0.015103213 0.07555865
-0.09287363 0.046175744 0.03443333 -0.10145307 0.056933712 -0.08921228 -0.073885374 -0.026367456
0.029884012 0.09184976 0.06743988 -0.047878515 0.11819235 0.070971206 0.050938502 0.10803957
0.04883233 -0.005854907 0.008303953 0.11175542 -0.018112483 0.13572569 -0.09474915 -0.022546778
0.014977373 0.08120857 0.060803294 -0.0411601 0.094420604 0.07889147 -0.069479756 -0.08516026
0.002210208 -0.07163531 -0.013324816 0.074844934 0.016752021 0.05835946 -0.09269729 0.0058290474
-0.10667129 0.09156179 0.025197135 -0.10042598 -0.021620508 0.0008708518 0.09687482 -0.012012106
00000000: 5e27 4abc 93de 393d a575 2a3d 8eb5 98bc
00000010: 0be0 3c3d 6be4 dd3d 08da 9a3d 90ef 5abd
00000020: ca01 a8bd 423a d13c faed 84bd 1a9f 273d
00000030: 987d b23d 8cfd 143b a648 cabd 8ff9 14bd
00000040: a250 19bd 90b6 b9bb db22 863d a43f 9ebd
00000050: 00df 9a3d 87fd d3bd 7608 613d 92ee 1b3d
00000060: df54 e1bc cdef 8f3d ebb6 c0bc f4e8 083c
00000070: 9f44 b53d 9232 3ebd 9009 69bd bd2a 9dbd
00000080: 4950 923d 04ed 723c 2d81 e6bd 259d d33d
00000090: 7d61 e6bd 7c45 3b3b d637 163d a139 623d
000000a0: b53b 313d 5d44 5cbd 7b3b 763d 36e8 133d
000000b0: 0b3b a4bd e697 053e a4ab 49bd 8cd5 f53b
000000c0: 1a90 ca3c 10fc a2bd d335 0c3d 824d dbbd
000000d0: d389 593d ae6b 133d fa59 90bd 7701 f13c
000000e0: d6bf c3bc 7819 bcbd e54a f63d 0c50 2fbd
000000f0: 1356 013e 3c67 3a3d 22ca a8bd 42cf 95bd
00000100: ad6a ecbd 7079 c33d a0d4 8abc 4d2b 0fbd
00000110: e957 82bd b6e9 a63c b81c acbd 760a 043e
00000120: 71f4 973d 8e7c eebc 8343 933d 46e3 3dbb
00000130: 0e2e 4c3c 9330 debd bce9 debd 2a14 d5bd
00000140: c85c db3d f225 1f3d 55bc 263c c0b3 b3bd
00000150: 639c a13d 2239 84bd 93f1 843d 84c4 b3bc
00000160: c203 97bd 72cd 6abd 131c 403c e8fd 13bd
00000170: 4b0d bdbd b21b c43c 1262 39bd 2f1c 113d
00000180: d9cf 6fbd 2994 eb3c 41fd 983c 5042 833d
00000190: e4da 8f3d c09e aabd 8701 bebc c917 9b3d
000001a0: 2417 b3ba e433 c33d 9afe a33a f7a0 da3d
000001b0: f445 283d 4b37 8c3b bf16 833d 407a a13d
000001c0: ceff d8bd 2dab 84bb 0b5c ea3d 6a91 ac3c
000001d0: 9816 e13c a043 fb3c 32d8 35bd 0cbf eb3d
000001e0: 29e5 963c 35ea cdbc 48be ab3c dbb0 0bbd
000001f0: 0ea3 a6bd 9510 b93c ebd4 d7bd bc91 8cbc
00000200: 57c3 67bd 51b5 1c3d 7951 c2bd c66e 193d
00000210: 1dc2 c6bd c146 aabc 6baf 103d d560 8c3d
00000220: 0459 fe3c 74d4 b2bd 0adc 83bd 6e13 c6bd
00000230: a267 7e3d 17c4 cfbc 440a c83d ad6f fdbc
00000240: 84a5 aabd d8f1 42bc c72c 003e 2a67 a0bd
00000250: 0f26 533c 43d9 dd3d ac8a bfbd 7441 99bd
00000260: 9157 bfbd fe90 d8bc 794c e5bd b845 d23d
00000270: babb 74bc e928 66bc e07c 963d f6b7 0a3d
00000280: 99c1 9dbd f71b cabd 8d76 1ebd 8f4c 7f3d
00000290: 110d 053c 8dc4 023e decb e43d 70d1 05bd
000002a0: 0567 b3bc 0c9e f9bd 5d23 88bd 40af fc3d
000002b0: 2dbf 633c a091 c33d be44 b7bd 46f0 a13d
000002c0: 9d5b c83d 3826 5bbb c28c 71bc 11f4 c53a
000002d0: 554a 8bbc 468f acbd 5be3 94bd 2171 a1bd
000002e0: d8e7 ea3c 902e 5abd d6a7 4cbd 7533 c8bd
000002f0: 156e 0f3e fa25 ca3d 67f0 ec3d 4e99 8cbd
00000300: 7d83 1c3b 40fe 90bc 7e1a e4bb c764 edbd
00000310: 680f 55bd 9923 36bd 8dba bfbd ebe6 21bd
00000320: 86fe e9bd 2ed6 f83d 1d07 403d 03d1 ecbd
00000330: b7e1 9bbd 53d2 edbd 7773 773c 7ebe 9a3d
00000340: 8834 bebd c722 3d3d f709 0d3d a1c6 cfbd
00000350: 5333 693d eeb4 b6bd 3751 97bd 9000 d8bc
00000360: 51cf f43c ba1b bc3d eb1d 8a3d 431c 44bd
00000370: d50e f23d 5a59 913d e4a4 503d da43 dd3d
00000380: 6904 483d 85da bfbb 4e0d 083c 07e0 e43d
00000390: a160 94bc adfb 0a3e d80b c2bd 05b4 b8bc
000003a0: a863 753c ae50 a63d e00c 793d 7e97 28bd
000003b0: 975f c13d da91 a13d 674b 8ebd 8168 aebd
000003c0: 23d9 103b 89b5 92bd 5450 5abc 4d48 993d
000003d0: 893b 893c 540a 6f3d 14d8 bdbd 9801 bf3b
000003e0: 7a76 dabd bf84 bb3d 396a ce3c 23ac cdbd
000003f0: 7e1d b1bc e049 643a 4e66 c63d 6dce 44bc

onnx::MatMul_217 f4 [64, 64]
0.081887595 -0.090565376 0.10721058 -0.0961744 0.07600007 0.011337765 -0.0605285 0.07474235
-0.098183125 0.028318737 0.094204664 -0.10895811 -0.120015904 0.038424306 -0.037608724 0.090558045
0.08138198 0.0037491713 0.013641392 0.0955607 -0.04702914 -0.014954969 0.053162638 0.06463945
-0.0024231267 0.1008111 -0.029884629 0.041097406 -0.060115743 0.0002727313 0.062863015 0.011217702
0.032694682 -0.08867806 0.044162374 0.11015018 0.074468054 -0.07826047 -0.0198172 0.028398078
0.028059186 -0.071894236 0.12926774 -0.05624802 -0.08165659 0.07767741 0.01606743 -0.04662796
0.008198425 -0.037344843 0.0645822 -0.058230788 -0.1169348 -0.014528912 0.07995233 -0.071091525
0.04541569 0.064024545 0.11681591 0.016458906 -0.035260424 0.11347452 0.024449637 0.042292416
-0.057334892 -0.07559467 0.00067411596 -0.055107467 -0.05719107 -0.02269747 0.10367678 0.06762414
-0.027348679 0.14509939 -0.06516511 0.07617302 0.12292993 -0.13327307 -0.09374743 0.074182786
0.031763382 -0.009732412 -0.07254333 0.13420783 0.026412372 0.039428636 -0.08003812 -0.013770869
0.09321623 0.14830267 0.11267986 0.06979442 0.078876555 -0.033361122 -0.004088047 -0.0167969
0.11825903 0.055447668 0.050085094 0.11085625 0.04102555 0.1417407 -0.07636458 0.1232238
-0.05545287 -0.11164178 0.0917296 0.03790702 -0.032164987 0.08432979 0.094089694 0.13035722
0.050908577 0.024713263 -0.11050043 0.0030513518 0.06095315 -0.032192405 -0.043411553 -0.06388236
-0.039955046 0.113823004 -0.011241727 -0.12343279 -0.019656166 0.07255072 0.07355764 -0.07777648
0.01785935 0.05650903 -0.030452736 -0.087849036 -0.046806224 0.09210981 0.0032626686 0.008143463
0.061612945 -0.013505572 -0.06101529 0.09633477 0.0030410308 -0.05925585 -0.0797343 -0.08789763
0.073911026 0.06646162 0.008412388 0.14900446 -0.06827362 -0.092924 0.09163598 -0.012488267
0.14362241 -0.038153104 -0.08686016 0.0025389341 0.065799676 0.062132142 0.09401317 0.0022181575
-0.04206954 0.15173347 -0.0570841 -0.10884418 -0.041253135 -0.03009793 0.038504552 -0.006153339
-0.026732136 0.004115465 0.09126027 0.0983182 0.08682108 0.15402697 -0.016811047 0.10386388
-0.12691621 -0.026606813 0.06861746 0.0145781245 -0.021028426 -0.037274335 -0.071003884 0.13487951
0.06333819 -0.12759134 -0.0051337276 -0.024061598 -0.02564092 -0.059806187 0.10946106 0.02053453
-0.04367109 -0.015304799 0.055849034 -0.073364966 0.056575615 0.10111142 -0.06001497 0.12290599
-0.062300086 -0.05054167 -0.07635467 0.0983741 0.03313446 0.095999785 -0.054141767 -0.05427797
-0.08456979 0.028302599 0.041700035 0.1010687 -0.081338294 0.10448499 -0.09848857 0.056602933
0.009848829 0.009048294 0.057162203 0.027279299 0.062201627 -0.054295707 0.019120326 0.12197241
-0.007531695 0.045976426 0.05981754 -0.030830154 0.06778425 -0.016971566 -0.112293005 -0.032716263
0.08726719 -0.08372599 0.015211919 -0.047784824 -0.0657439 0.016238287 0.07779356 0.15251616
-0.0910708 -0.03434491 0.078576446 -0.14231688 -0.07345217 -0.10859986 0.02247391 0.00024506403
-0.046951704 0.10703324 -0.06962156 -0.0076823905 0.100114346 -0.039151356 0.1320359 0.005830141
00000000: afb4 a73d 577a b9bd 3891 db3d 15f7 c4bd
00000010: eda5 9b3d 08c2 393c bbec 77bd 8412 993d
00000020: 3c14 c9bd b2fc e73c 60ee c03d 6e25 dfbd
00000030: e6ca f5bd ce62 1d3d 9b0b 1abd 7f76 b93d
00000040: 98ab a63d a8b4 753b 2580 5f3c 54b5 c33d
00000050: a1a1 40bd b005 75bc 11c1 593d b061 843d
00000060: 52cd 1ebb 0d76 ce3d 9cd0 f4bc c155 283d
00000070: ed3b 76bd 60fd 8e39 53be 803d 74ca 373c
00000080: dcea 053d d89c b5bd 9be3 343d 6b96 e13d
00000090: b582 983d 0647 a0bd ae57 a2bc 16a3 e83c
000000a0: 61dc e53c 493d 93bd c35e 043e 5364 66bd
000000b0: 923b a7bd 5515 9f3d d89f 833c f6fc 3ebd
000000c0: b052 063c e8f6 18bd ac43 843d 6883 6ebd
000000d0: 837b efbd ac0a 6ebc 0cbe a33d 6f98 91bd
000000e0: cd05 3a3d 4d1f 833d 2e3d ef3d d4d4 863c
000000f0: 3c6d 10bd 5465 e83d 9b4a c83c d03a 2d3d
00000100: fed7 6abd 61d1 9abd 28b7 303a 5eb8 61bd
00000110: 2f41 6abd 0bf0 b9bc 7e54 d43d 867e 8a3d
00000120: 560a e0bc ef94 143e 4975 85bd 9a00 9c3d
00000130: b0c2 fb3d bc78 08be a7fe bfbd 25ed 973d
00000140: 521a 023d b274 1fbc 9991 94bd c76d 093e
00000150: c25e d83c ec7f 213d 07eb a3bd 369f 61bc
00000160: 27e8 be3d a8dc 173e b3c4 e63d 60f0 8e3d
00000170: 088a a13d aca5 08bd 06f5 85bb a799 89bc
00000180: ca31 f23d 181d 633d 0726 4d3d 9a08 e33d
00000190: 680a 283d 7924 113e 0865 9cbd c25c fc3d
000001a0: 8c22 63bd 72a4 e4bd bbdc bb3d 6444 1b3d
000001b0: 6fbf 03bd 19b5 ac3d 19b2 c03d 5d7c 053e
000001c0: 8385 503d 7873 ca3c 0d4e e2bd 30f9 473b
000001d0: 03aa 793d 2fdc 03bd 50d0 31bd c1d4 82bd
000001e0: e7a7 23bd 091c e93d 382f 38bc 55ca fcbd
000001f0: f805 a1bc 7995 943d 63a5 963d 4649 9fbd
00000200: c64d 923c 0376 673d 0478 f9bc 32ea b3bd
00000210: e2b7 3fbd 11a4 bc3d 7fd2 553b 296c 053c
00000220: db5d 7c3d 7a46 5dbc 2beb 79bd 2a4b c53d
00000230: 084c 473b 43b6 72bd bd4b a3bd ac03 b4bd
00000240: aa5e 973d 081d 883d 1dd4 093c a094 183e
00000250: 0ad3 8bbd f04e bebd a5ab bb3d 979b 4cbc
00000260: c111 133e 6e46 1cbd bde3 b1bd 3f64 263b
00000270: fbc1 863d 467e 7e3d fa89 c03d 825e 113b
00000280: 1c51 2cbd 0560 1b3e 04d1 69bd b3e9 debd
00000290: 0cf9 28bd ef8f f6bc f3b6 1d3d f3a1 c9bb
000002a0: 5afd dabc 06db 863b aae6 ba3d 0d5b c93d
000002b0: 40cf b13d 3fb9 1d3e 52b7 89bc 96b6 d43d
000002c0: 53f6 01be 88f6 d9bc 5087 8c3d 16d9 6e3c
000002d0: ce43 acbc f9ac 18bd 7c6a 91bd db1d 0a3e
000002e0: 74b7 813d 4ea7 02be d438 a8bb d41c c5bc
000002f0: e80c d2bc 55f7 74bd 1f2d e03d 0838 a83c
00000300: 75e0 32bd fbc0 7abc f5c1 643d 5f40 96bd
00000310: d5bb 673d 8113 cf3d 42d2 75bd 23b6 fb3d
00000320: 602e 7fbd c804 4fbd d65f 9cbd 5c78 c93d
00000330: 00b8 073d 899b c43d c2c3 5dbd 9452 5ebd
00000340: ed32 adbd dada e73c a8cd 2a3d 1bfd ce3d
00000350: b194 a6bd 3afc d53d 60b4 c9bd 7ad8 673d
00000360: fc5c 213c 4c3f 143c ea22 6a3d d678 df3c
00000370: 22c7 7e3d 2d65 5ebd 3ba2 9c3c accc f93d
00000380: 70cc f6bb c751 3c3d 3d03 753d 858f fcbc
00000390: 78d2 8a3d f407 8bbc e0f9 e5bd 7d01 06bd
000003a0: 24b9 b23d 8878 abbd 6a3b 793c 05ba 43bd
000003b0: bda4 86bd 2806 853c 3b52 9f3d 322d 1c3e
000003c0: 5483 babd 40ad 0cbd b0ec a03d 84bb 11be
000003d0: 176e 96bd 9a69 debd 351b b83c f07b 8039
000003e0: 6e50 40bd 3e34 db3d c095 8ebd 90bc fbbb
000003f0: c008 cd3d 2c5d 20bd 6b34 073e c40a bf3b

onnx::MatMul_220 f4 [64, 64]
0.027947068 -0.030599453 0.08672738 -0.08584328 -0.02865616 -0.0068264324 -0.079277255 -0.066314615
-0.11457904 -0.004359303 0.13755138 -0.035595126 -0.016157323 0.07965383 0.11253994 0.08423208
-0.1359893 -0.034631122 0.025306573 0.07324075 -0.09534362 -0.004679461 0.11516301 0.083975405
-0.039728962 -0.020913769 0.13269754 -0.0028999974 -0.097332485 -0.05727197 0.06535062 -0.07773072
-0.14034438 0.0074649937 0.054218844 0.024079941 0.0058126384 -0.061340515 -0.11992079 -0.015543159
0.05111514 0.006400476 -0.058504183 -0.02666654 0.115092784 -0.04630495 -0.08179734 0.056145526
0.007614946 -0.06871652 0.100353174 -0.07099217 -0.0076355506 -0.10570331 0.0584198 0.011888398
-0.10936722 0.11824007 -0.08128304 0.09913889 0.081784606 -0.079318 0.078588165 0.008361085
-0.13927874 -0.032886207 0.06689321 0.014460633 0.028814228 -0.0742317 0.034731396 0.10233731
-0.0059233857 0.12450437 0.12869927 0.08736433 0.08148181 0.063721254 -0.08971588 0.048707906
-0.0317844 0.12312947 -0.044659287 -0.09580414 0.0678418 -0.094925925 0.016782 0.05237564
-0.084133394 0.09565351 -0.06157176 -0.11031819 -0.014075946 0.07259265 0.14079075 -0.099440575
0.010504624 0.0058622556 0.014112126 -0.02887035 0.13124901 -0.06557572 -0.105020255 -0.029763998
-0.06258453 0.015905844 0.14714071 -0.085449874 0.037654582 0.076479234 -0.040348273 -0.12613247
0.017340261 0.083266646 0.0065803737 0.00024863938 0.08630464 -0.06904592 0.046747647 -0.024419073
-0.036117215 -0.075206816 0.09561826 0.05684036 0.10007351 0.038109634 0.090663984 0.0040280023
-0.063459314 -0.03494761 -0.009808851 0.01995235 -0.10624269 -0.1201765 0.029861033 0.12443987
-0.008810268 0.056161065 -0.02045359 0.013783521 -0.09136614 0.12614964 0.12961748 -0.028167257
-0.057956237 -0.056899134 0.10757823 -0.027693812 0.08185653 -0.10506087 0.06201577 -0.1129253
-0.14912796 0.14995848 0.04864263 0.031692743 -0.040218357 0.059457317 0.14170343 -0.029727956
-0.062111918 0.094956994 0.07067512 0.07724604 0.038242247 -0.017484235 -0.13944408 -0.11615763
-0.030844044 0.03208329 -0.053087812 -0.080552205 0.060940105 0.010405384 0.032709263 0.00095911324
0.08699612 0.0077684685 0.035262026 -0.10867505 -0.04987234 -0.09891627 -0.044286545 -0.0122905765
0.08433373 0.045176893 0.07341266 0.09191878 -0.010276936 0.02323566 -0.088784 0.048957735
0.054871585 0.110610224 0.09005595 -0.011998836 -0.013235484 -0.07825747 -0.10032149 -0.051110227
0.0020867921 0.012135196 -0.061973393 0.055384092 -0.0746398 0.11718168 0.12095718 0.0073712785
-0.10975866 0.069230214 -0.003939807 0.11620498 -0.0074959155 0.06680924 0.06731956 0.005990631
0.06727041 0.10895746 0.12670133 0.05664074 0.09689965 0.035826504 0.102947615 0.08641747
0.09564537 -0.055410504 -0.09886829 0.014574654 0.0074771945 -0.051120367 0.08488784 0.08541731
-0.10866497 0.013268834 0.0053725773 -0.14073598 -0.05763936 -0.079506904 -0.053196155 -0.119908474
0.027294416 -0.08587737 -0.075273015 0.011596017 0.065159716 0.025587605 0.035614908 0.03248881
-0.0051524593 0.04214005 -0.009972026 -0.014298589 0.045569822 -0.086486146 -0.030361613 -0.09581025
00000000: 40f1 e43c b4ab fabc 209e b13d 9ace afbd
00000010: 53c0 eabc 44b0 dfbb 1d5c a2bd f5cf 87bd
00000020: 6aa8 eabd 7cd8 8ebb 45da 0c3e 32cc 11bd
00000030: 5d5c 84bc 8c21 a33d 577b e63d de81 ac3d
00000040: c740 0bbe 5dd9 0dbd bb4f cf3c 3fff 953d
00000050: 8443 c3bd 2a56 99bb 96da eb3d 4cfb ab3d
00000060: d6ba 22bd 5a53 abbc dde1 073e e20d 3ebb
00000070: 4156 c7bd 0396 6abd 8cd6 853d 4931 9fbd
00000080: 70b6 0fbe e89c f43b 9414 5e3d 4c43 c53c
00000090: f277 be3b 3140 7bbd 0899 f5bd bca8 7ebc
000000a0: 1c5e 513d 16bb d13b 15a2 6fbd ca73 dabc
000000b0: c4b5 eb3d 42aa 3dbd 5d85 a7bd daf8 653d
000000c0: cc86 f93b 3fbb 8cbd f785 cd3d 5864 91bd
000000d0: a433 fabb fa7a d8bd 9a49 6f3d 8ec7 423c
000000e0: ecfb dfbd da27 f23d b977 a6bd 5509 cb3d
000000f0: b07e a73d 7a71 a2bd d5f2 a03d effc 083c
00000100: 169f 0ebe b0b3 06bd 4fff 883d 4aec 6c3c
00000110: d10b ec3c ca06 98bd 8242 0e3d 3996 d13d
00000120: f618 c2bb 26fc fe3d bec9 033e 12ec b23d
00000130: efdf a63d 4a80 823d f6bc b7bd f181 473d
00000140: 5c30 02bd 4e2b fc3d a8ec 36bd f634 c4bd
00000150: a4f0 8a3d 8668 c2bd 687a 893c d787 563d
00000160: 214e acbd fde5 c33d ab32 7cbd 81ee e1bd
00000170: cc9e 66bc 75ab 943d 732b 103e 80a7 cbbd
00000180: 961b 2c3c 2a18 c03b 8c36 673c 8381 ecbc
00000190: 2466 063e 904c 86bd dc14 d7bd a1d3 f3bc
000001a0: 512c 80bd f94c 823c 0eac 163e 5800 afbd
000001b0: b13b 1a3d 25a1 9c3d 3b44 25bd df28 01be
000001c0: 2a0d 8e3c b487 aa3d 2da0 d73b d05b 8239
000001d0: 7dc0 b03d f367 8dbd 767a 3f3d 820a c8bc
000001e0: a5ef 13bd 0806 9abd 82d3 c33d 70d1 683d
000001f0: 57f3 cc3d d918 1c3d 0aae b93d 55fd 833b
00000200: f5f6 81bd 3a25 0fbd 4eb5 20bc 1c73 a33c
00000210: c495 d9bd 191f f6bd 209f f43c 55da fe3d
00000220: f158 10bc 2509 663d 4a8e a7bc 47d4 613c
00000230: 2c1e bbbd 5f2d 013e 72ba 043e 05bf e6bc
00000240: 8563 6dbd 110f 69bd fa51 dc3d 22de e2bc
00000250: 65a4 a73d 272a d7bd 3f04 7e3d 6145 e7bd
00000260: 00b5 18be b78e 193e 7f3d 473d 40d0 013d
00000270: 01bc 24bd 8489 733d b41a 113e 0b88 f3bc
00000280: 1169 7ebd d078 c23d 1ebe 903d 2c33 9e3d
00000290: e7a3 1c3d 193b 8fbc 6eca 0ebe 0de4 edbd
000002a0: a6ac fcbc c569 033d 9b72 59bd 8ef8 a4bd
000002b0: 559c 793d 587b 2a3c 26fa 053d 006d 7b3a
000002c0: 062b b23d a38e fe3b ea6e 103d 0691 debd
000002d0: f046 4cbd 9d94 cabd cf65 35bd 6a5e 49bc
000002e0: 2ab7 ac3d 680b 393d 6059 963d ea3f bc3d
000002f0: 9860 28bc b658 be3c 63d4 b5bd e887 483d
00000300: 07c1 603d 9d87 e23d 416f b83d c496 44bc
00000310: a5d9 58bc 7445 a0bd 5a75 cdbd f558 51bd
00000320: 90c2 083b b3d2 463c d0d7 7dbd 6eda 623d
00000330: c0dc 98bd f3fc ef3d 66b8 f73d c48a f13b
00000340: 26c9 e0bd 92c8 8d3d 7f19 81bb e0fc ed3d
00000350: 4ca0 f5bb 48d3 883d d6de 893d 0e4d c43b
00000360: 12c5 893d 1725 df3d febd 013e 1f00 683d
00000370: 5373 c63d d0be 123d 33d6 d23d a4fb b03d
00000380: b8e1 c33d 20f6 62bd 757b cabd 88ca 6e3c
00000390: 4103 f53b 9763 51bd add9 ad3d 45ef ae3d
000003a0: bd8b debd 8665 593c 720c b03b 181d 10be
000003b0: 4017 6cbd 84d4 a2bd 36e4 59bd 9392 f5bd
000003c0: 8a98 df3c 79e0 afbd bd28 9abd 38fd 3d3c
000003d0: 7572 853d 199d d13c f0e0 113d fd12 053d
000003e0: f6d5 a8bb 0c9b 2c3d b561 23bc a144 6abc
000003f0: 6ca7 3a3d a61f b1bd ebb8 f8bc 2a38 c4bd
